PAMAP2/models/GaussianNB().onnx (onnx, 12206 bytes, 4 tensors)

theta f4 [1, 12, 108]
00000000: bec3 383e 6f86 2abd 8ae3 5d3c 3992 2a3e
00000010: d10c 693d 9e1e 323c f9c0 923e 2174 9f3d
00000020: 85ae a53b 93c2 963b 6ac8 2a3f bb13 6f40
00000030: a0dc 6e40 d5ff ec3e 42f2 bb40 9e7f 1645
00000040: 22ef 0140 5220 0340 1c32 e03e c1c1 9640
00000050: 4917 c644 f055 cd40 0504 cf40 65d0 dd3e
00000060: d1bc 0341 a3c4 5a45 b920 4d3f 9cdd 513f
00000070: deb2 5e3e 339c d63f 3f09 0244 a792 d83f
00000080: 9f6a d83f 63ce 943e c421 3f40 34d1 8c44
00000090: 7e63 0541 237b 0641 4a02 da3e 9a2b 1a41
000000a0: 6b5d 8a45 a22c 013f 5fb1 fb3e 0ffc 913e
000000b0: 5525 2040 0775 2c44 c9b0 cbc0 358b cbc0
000000c0: 2b72 a83e d9a6 1b41 bd9d 8245 c396 6bc0
000000d0: 26d7 6cc0 1a0a 8f3e 7ab6 aa40 178c 0345
000000e0: afeb 4241 5b0f 4441 5c0f 5a3f 0a16 7941
000000f0: f005 d145 df47 2d41 f087 2e41 4706 073f
00000100: 3a95 4341 6bfd ad45 4bab 18c1 04b4 18c1
00000110: 26f4 143f e255 5041 836b a845 e517 8542
00000120: 3e2f c641 40c0 2845 d3ff 483f 4d17 af40
00000130: 390c 2745 820b c63e 351d 2541 5fc6 1e45
00000140: 72a4 033f 65e4 be3e befa 2945 b31e c33d
00000150: 8a5c f53f e129 2a45 8e14 6b3e 99c9 ae41
00000160: ea57 1d45 1db2 493f 62de 9c40 956f 2d45
00000170: c608 aa3e 1ab6 ad40 f963 2d45 4c0c c33e
00000180: 5f1f 7c3f 8c9d 2145 81f5 133e 7aeb 2243
00000190: 52f2 0f45 b058 1740 0341 2442 83f9 0f45
000001a0: 26de 5e3f 5a8b 4d42 9ead 1345 6308 863f
000001b0: 0a4a 043e 3378 95bc 563f 3bbe 8fc3 cf3d
000001c0: 28b4 a53d 3b74 69bd f0fa 3b3e dddd 033e
000001d0: 2b54 9d3d e58b f339 3df2 893d e693 b5bf
000001e0: a5a8 b7bf 5ef8 153f f752 8240 12b1 8c44
000001f0: 9d6f 8a40 01ee 8b40 b53a 373f fe42 1241
00000200: c032 5545 0f35 a440 9f3b a640 f105 433f
00000210: aab1 f440 ade0 2d45 e734 0f3f d88b 0e3f
00000220: b794 6d3e adea ad3f 2da3 b143 7b15 1641
00000230: d288 1641 dcb5 7e3e 8844 2241 8415 9645
00000240: 6ae4 4e3e 97fc 833e 6c32 e93e 9a46 5440
00000250: ae68 8444 e6a9 0d41 05a7 0d41 c54b 763e
00000260: d4a7 2641 2fb3 8e45 1f5b abbe dc4d abbe
00000270: 6ed8 a13e 9d4e 8140 de69 8644 146e 1fc0
00000280: dbf6 1fc0 7b35 ad3e e834 8140 a8f1 ac44
00000290: d99f 0041 56cf 0241 ffc7 973f c92b 6941
000002a0: 8432 a745 5c44 2241 b0c5 2341 6f31 213f
000002b0: 694b 3a41 1e1e a345 11e7 c040 c874 c040
000002c0: d047 1c3f 7201 2541 69be 6645 e6c7 f641
000002d0: 3010 1641 7b3e 2245 1942 283f 04df fd41
000002e0: b468 1d45 685b 5b3f a917 4141 25d6 1845
000002f0: aa37 4f3f e12d e93d 9338 2745 d068 603d
00000300: 0844 953e 6869 2645 5a0a 923d 46f8 9d40
00000310: 7b9e 1b45 5752 bf3e be14 653f 37b2 2945
00000320: 51c3 a83d f035 be3e 61c6 2645 97d3 ba3d
00000330: cb76 033f f214 1e45 0b9a 153e 71a8 4043
00000340: 0ae0 0845 cfbe 3440 45d3 b941 2adf 0d45
00000350: 147f 3e3f 4f8e 7341 9980 0f45 643b 0c3f
00000360: aae9 3a3e 58a8 d63d faaf 98bd 79cb 3c3d
00000370: bd85 003d 7aac 1e3c 0f4c 3c3e 325b 2e3e
00000380: b223 8a3d 10da 93ba 067d 27be 523a e2c0
00000390: 8966 e4c0 f4b7 473f f6c9 1541 db6a 7545
000003a0: d764 4f40 6ca3 4d40 caa8 483f af7c d040
000003b0: 52cb f744 9b7e 2940 cb53 2b40 3422 353f
000003c0: 14f0 9640 6ddf b044 a27d f93e c8de fc3e
000003d0: c43d b63e 8e30 cd3f ee76 be43 7a04 1a41
000003e0: 01fe 1941 41eb 4a3e 2332 2741 7a04 9a45
000003f0: c211 d6be ebdd ccbe b898 ac3e ade1 0f40
0.1804342 -0.041632112 0.013543019 0.16657342 0.05689699 0.0108715575 0.2866285 0.07785822
0.0050562047 0.004600832 0.6671206 3.7355793 3.732216 0.46288934 5.8733225 2407.976
2.0302205 2.0488477 0.4378823 4.7111516 1584.7277 6.4167404 6.4692407 0.43323055
8.233598 3500.2898 0.80128056 0.81978774 0.2174792 1.6766418 520.1445 1.6919755
1.6907538 0.2906371 2.986436 1126.5376 8.33679 8.405063 0.4257987 9.635645
4427.6772 0.5045873 0.4915876 0.28512618 2.5022786 689.82855 -6.36533 -6.360743
0.32899603 9.728234 4179.7173 -3.6810768 -3.7006316 0.27937394 5.334775 2104.7556
12.18254 12.253749 0.85179687 15.567881 6688.742 10.830047 10.908188 0.52743953
12.223932 5567.6772 -9.54182 -9.543949 0.5818504 13.0209675 5389.439 66.54667
24.773067 2700.0156 0.78515357 5.4715943 2672.764 0.38680655 10.319631 2540.3982
0.514228 0.37283626 2719.6714 0.0952734 1.9168866 2722.6174 0.2295706 21.848436
2517.4946 0.78787404 4.9021463 2774.9739 0.3320982 5.428479 2774.2483 0.3809532
0.9848537 2585.8467 0.14449121 162.91983 2303.145 2.364788 41.063488 2303.5945
0.8705772 51.386086 2362.851 1.047131 0.12918869 -0.018245792 -0.1828588 0.10144722
0.08091003 -0.05699561 0.18357444 0.12877603 0.076820694 0.000464528 0.067356564 -1.418576
-1.4348341 0.58582103 4.0726275 1125.5334 4.3261247 4.372803 0.71573955 9.1413555
3411.1719 5.131477 5.194778 0.7618094 7.6466875 2782.0422 0.559401 0.55682135
0.23201261 1.3587242 355.2748 9.380244 9.408403 0.24874061 10.141731 4802.6895
0.2020432 0.25778648 0.4554628 3.3168092 1059.2712 8.853979 8.853276 0.24052341
10.415974 4566.398 -0.33467957 -0.3345784 0.31610435 4.0408463 1075.3083 -2.4910936
-2.4994419 0.33829865 4.0377083 1383.5518 8.039025 8.175619 1.1857909 14.57319
5350.3145 10.141689 10.235764 0.62966055 11.643411 5219.7646 6.0282063 6.0142555
0.6104708 10.312853 3691.9006 30.847607 9.378952 2595.905 0.65725857 31.733894
2518.544 0.8568635 12.068276 2445.384 0.8094431 0.11385704 2675.536 0.054787457
0.29153466 2662.588 0.07130881 4.936557 2489.905 0.37367508 0.89484775 2715.1384
0.08240379 0.37150526 2668.3987 0.09122389 0.5135314 2529.309 0.14609544 192.65797
2190.0024 2.824146 23.228159 2269.9478 0.74412656 15.222243 2296.0374 0.5477812
0.18253198 0.10481328 -0.0745544 0.046092484 0.031377543 0.009684676 0.18388389 0.17026976
0.067450896 -0.0011280198 -0.16356286 -7.069619 -7.1375165 0.78015065 9.361807 3926.6785
3.2405298 3.2130995 0.7838255 6.51522 1982.3538 2.6483524 2.6769893 0.70755315
4.7168064 1414.982 0.48728663 0.4938872 0.35593998 1.6030443 380.92914 9.626093
9.624513 0.19816305 10.44974 4928.5596 -0.41810423 -0.4001306 0.33710265 2.2481492

sigma f4 [1, 12, 108]
00000000: 9164 5b41 b05c 5b41 c732 5b41 0aff 5a41
00000010: 32ca 5a41 3821 5b41 1cc7 5a41 9a98 5a41
00000020: f7df 5a41 443d 5a41 1607 8042 a07f e241
00000030: 62e4 e841 b35d 7041 0442 eb41 2850 ed49
00000040: 2b25 be41 c08e be41 81ae 6841 ce2f 2242
00000050: 3dbc a249 dc21 a841 5114 a841 990a 6841
00000060: 853c c241 0a9a 1449 65cf 7741 4a4f 7841
00000070: d5b3 5c41 b7f4 8a41 3d3b c548 33cd a041
00000080: 5797 a341 d4ab 6141 29af c741 0f7e 9149
00000090: bc3f b241 0f91 ae41 28e6 6c41 87d0 8641
000000a0: 91c6 8349 c2fa 9a41 6b09 9e41 c3cc 6641
000000b0: 8be4 7c42 6c00 8949 98dd 3042 01e1 3242
000000c0: 66be 6841 0884 3642 20bf 9949 9130 b341
000000d0: 79f9 b241 871d 6041 1c5e 2342 0ba0 b149
000000e0: c831 2142 e599 2442 da55 8d41 55c9 4442
000000f0: 624e e749 532d 8341 9dab 8041 8d9f 6e41
00000100: 806a b741 852f 2049 e9c7 4842 55f1 4d42
00000110: 7ae7 8141 ef09 0843 5d13 944a c4f4 8548
00000120: badd 4a47 2a8a 8347 7d38 0142 bac3 fe44
00000130: 5b95 c147 f56e 8841 d32b f845 054e 4e47
00000140: e650 a441 4104 ec41 451f f346 12b1 5e41
00000150: 44b4 7643 dc2e 1c47 9d7b 7241 d0b6 bc46
00000160: 8a1d c246 c819 fb41 1b76 c544 1c30 9147
00000170: f47c 8c41 d138 e244 6f30 d647 dd19 9241
00000180: e522 c342 9829 6347 30b7 6541 495f 8149
00000190: 2e93 8247 c88c 0b43 53c7 0348 a2b8 d746
000001a0: c66a 1c42 c7f4 3248 17b7 9847 11db 6342
000001b0: 6632 5c41 207f 5c41 7ef9 5c41 ace9 5a41
000001c0: 6850 5b41 fedb 5b41 69c9 5b41 2c66 5b41
000001d0: 8e81 5b41 4935 5a41 524b b841 6e70 a741
000001e0: 399c aa41 bd89 6a41 8542 3a42 9f48 9c49
000001f0: 03a6 2a42 7060 2c42 b89a 7341 f3a6 4642
00000200: ecf0 8849 db8b a841 d10b ab41 a531 6d41
00000210: 1dc5 7442 64bd 9f49 49d5 5e41 9c37 5f41
00000220: db88 5b41 6d98 6641 b638 3a47 4b9a 6141
00000230: e51b 6141 67f6 5b41 f458 6541 12de ec47
00000240: c5cc a041 1dec 9f41 b50e 6241 a9d0 9f41
00000250: b7ae 1a49 6f3f 8a41 2fd7 8a41 17fa 5d41
00000260: 771d f541 094c 2149 1c2f 9a41 742c 9a41
00000270: 1dfc 5f41 fe9c 4042 8a29 ba48 26f2 9141
00000280: 8fbf 9241 0a36 5e41 3f65 b341 6344 6649
00000290: 263e 8942 0954 8a42 0014 9241 b87d 8043
000002a0: 479c 544a e9c6 9d41 0abb 9a41 6a59 6a41
000002b0: e499 9641 7b24 b349 37cf 1542 4c40 1842
000002c0: 0659 6e41 28b5 cc42 1a09 0d4a c130 5047
000002d0: 96d4 8c45 8181 b647 9d87 a241 dd24 aa47
000002e0: 7dd7 e847 b42d 0a42 1406 ea45 7310 8547
000002f0: 685e aa41 8374 6841 b812 8646 0135 5b41
00000300: de79 b241 14b6 c046 4fa0 5c41 74f4 1345
00000310: 9cd9 8346 a3a7 8441 a047 8743 de20 c547
00000320: 1dd8 6541 d13f bb41 40a1 fd47 4e32 5d41
00000330: 3a81 fb41 f617 8947 699f 6041 801d b149
00000340: bd9d ad47 cb7b 1343 9e9e 0647 f366 8546
00000350: b7fe d241 378e 0d47 20c0 b747 bd49 d341
00000360: b0e5 5c41 5a5c 5c41 366b 5c41 7ce1 5a41
00000370: baf6 5b41 1808 5b41 e085 5b41 ee2b 5b41
00000380: 73f9 5b41 e234 5a41 aad2 a741 b020 d441
00000390: 59d3 de41 c0e9 7441 209a a841 34eb a849
000003a0: 2c20 a941 710b ab41 778a 6841 b545 0542
000003b0: 3b43 5649 786b 8741 bd19 8941 7d9c 6541
000003c0: c657 bc41 1492 4649 4d17 6041 508d 6041
000003d0: 4de4 5b41 3bbb 6441 a42a 2c47 3006 5b41
000003e0: 26fb 5a41 098f 5a41 3681 6341 8ef2 5246
000003f0: 859d 8341 619f 8341 e26a 5b41 1009 7a41
13.712052 13.710129 13.699897 13.687265 13.674364 13.69561 13.673611 13.662256
13.679679 13.639957 64.01384 28.312317 29.111515 15.022876 29.407234 1.944069e+06
23.768148 23.819702 14.5426035 40.546684 1.3331276e+06 21.016533 21.00992 14.502587
24.27955 608672.6 15.488133 15.519358 13.793904 17.36949 403929.9 20.100195
20.448896 14.10445 24.960527 1.1918739e+06 22.28112 21.82083 14.8061905 16.85182
1.0795061e+06 19.37244 19.754599 14.424991 63.223186 1.1223175e+06 44.2164 44.71973
14.546484 45.628937 1.259492e+06 22.398714 22.371813 14.007209 40.841904 1.4551054e+06
40.298615 41.150288 17.66692 49.196613 1.8948602e+06 16.397131 16.083796 14.913953
22.927002 656120.3 50.195225 51.485676 16.238026 136.0388 4.8521425e+06 274342.12
51933.727 67348.33 32.305164 2038.1165 99114.71 17.054178 7941.478 52814.02
20.539501 29.502077 31119.635 13.91823 246.70416 39982.86 15.155179 24155.406
24846.77 31.387589 1579.6908 74336.22 17.561012 1809.7755 109664.87 18.262629
97.56815 58153.594 14.3572235 1.0598171e+06 66854.36 139.54993 134941.3 27612.316
39.10427 183251.11 78190.18 56.963932 13.762304 13.781036 13.810911 13.682049
13.70713 13.741209 13.736672 13.712444 13.71913 13.638009 23.036777 20.929897
21.32628 14.6586275 46.56496 1.2802759e+06 42.66212 43.094177 15.225273 49.663036
1.1218215e+06 21.068289 21.38077 14.82462 61.192493 1.3085885e+06 13.927072 13.9510765
13.720912 14.412213 47672.71 14.100169 14.06931 13.747657 14.334217 121276.14
20.099985 19.99029 14.128591 19.976885 633579.44 17.280973 17.35507 13.873557
30.639387 660672.56 19.273003 19.271706 13.999051 48.153313 381260.3 18.243237
18.343534 13.888193 22.424437 943174.2 68.62138 69.16413 18.259766 256.98218
3.4834098e+06 19.722124 19.341328 14.64683 18.825142 1.4675354e+06 37.45236 38.06279
14.896734 102.35382 2.3107265e+06 53296.754 4506.573 93443.01 20.316217 87113.73
119214.98 34.544632 7488.76 68128.9 21.296097 14.528445 17161.36 13.70044
22.309505 24667.04 13.789138 2367.2783 16876.805 16.581854 270.55957 100929.734
14.365262 23.40616 129858.5 13.824781 31.438099 70191.92 14.0389185 1.450928e+06
88891.48 147.48357 34462.617 17075.475 26.374372 36238.215 94080.25 26.411005
13.806076 13.772547 13.776175 13.68005 13.747736 13.689476 13.720184 13.698225
13.748401 13.637911 20.977863 26.51596 27.853197 15.307068 21.075256 1.3837825e+06
21.140709 21.380587 14.533805 33.318073 877619.7 16.927475 17.137568 14.350705
23.542858 813345.25 14.005689 14.0345 13.7432375 14.295711 44074.64 13.689011
13.686316 13.659921 14.219046 13500.639 16.451914 16.452822 13.713594 15.627213

jointi f4 [1, 12]
00000000: fb05 14c0 4f77 16c0 c8d3 14c0 dc26 06c0
00000010: e5fa 3ec0 d8f0 1dc0 0b6a 15c0 d98e 33c0
00000020: 22f1 3ac0 0ae0 19c0 2b39 06c0 dc14 6bc0
-2.312865 -2.351032 -2.325426 -2.0961218 -2.9840634 -2.467825 -2.3345973 -2.8055937
-2.9209676 -2.4042993 -2.0972393 -3.6731482

sigma_sum_log f4 [1, 12]
00000000: 29f9 d0c3 705d cac3 b660 bdc3 665f c6c3
00000010: 7b98 fdc3 2e87 cbc3 0e08 d1c3 028a d1c3
00000020: dc56 dec3 e7b5 ccc3 24fa bcc3 6562 f8c3
-417.94656 -404.72998 -378.75555 -396.7453 -507.19125 -407.0561 -418.06293 -419.0782
-444.6786 -409.4211 -377.95422 -496.7687
