PAMAP2/models/TensorflowLight.onnx (onnx, 19521 bytes, 8 tensors)

dense_169/bias f4 [12]
-0.8316779 0.06387002 0.45056278 0.056783628 -0.05059485 -0.7615798 1.061779 0.35954216
-0.5298037 -0.10330615 -0.5071442 1.1623336
00000000: d8e8 54bf 49ce 823d 2ab0 e63e f395 683d
00000010: 8c3c 4fbd e5f6 42bf 60e8 873f e915 b83e
00000020: 37a1 07bf 2d92 d3bd 34d4 01bf 59c7 943f

dense_168/bias f4 [12]
0.100333214 0.063103735 0.3313988 0.028390918 -0.21058802 -0.12979975 -0.5135051 -0.0986469
0.07238601 -0.41340563 0.076949716 0.10824461
00000000: 807b cd3d 883c 813d 1aad a93e 1294 e83c
00000010: 63a4 57be 3aea 04be 1275 03bf 6307 cabd
00000020: 1e3f 943d e7a9 d3be d097 9d3d 5aaf dd3d

dense_167/bias f4 [16]
-0.14448449 0.0 0.21149491 0.075456426 0.054683074 0.21786352 0.0 -0.03073667
-0.027736533 0.04464297 0.109272674 0.20162678 0.06862059 0.31840885 0.26350483 0.12068203
00000000: bef3 13be 0000 0000 1f92 583e e688 9a3d
00000010: 5cfb 5f3d 9d17 5f3e 0000 0000 78cb fbbc
00000020: ba37 e3bc 8cdb 363d 5aca df3d 4077 4e3e
00000030: f488 8c3d 7c06 a33e 1bea 863e 2428 f73d

dense_166/bias f4 [32]
-0.15537183 0.0 0.12040188 0.005629961 -0.07399985 -0.011214259 0.0020296664 -0.005662135
0.0764721 0.0009812717 -0.07508074 0.029307226 0.0 0.0 0.14998743 0.14517103
0.0019125751 0.026558764 -0.025793862 -0.013643004 0.092918776 0.030266143 -0.026405806 0.04819888
0.09306987 0.14280535 -0.037817407 0.050212197 -0.0594335 -0.073609814 0.088668555 0.032087363
00000000: cb19 1fbe 0000 0000 4395 f63d 897b b83b
00000010: 3c8d 97bd 03bc 37bc 2704 053b 6e89 b9bb
00000020: 689d 9c3d 049e 803a eec3 99bd b515 f03c
00000030: 0000 0000 0000 0000 4e96 193e b7a7 143e
00000040: 5faf fa3a c491 d93c a64d d3bc e886 5fbc
00000050: 334c be3d b4f0 f73c fd50 d8bc 306c 453d
00000060: 6a9b be3d 913b 123e 6de6 1abd 4eab 4d3d
00000070: 8b70 73bd bec0 96bd dc97 b53d 0a6e 033d

const_fold_opt__26 f4 [32, 16]
1.0600971 -0.3228877 0.34657678 -0.072930016 0.35065797 -1.7357705 -0.069049686 0.3333236
0.035888877 0.020903667 -1.1358982 0.0565936 1.9696475 0.07088886 -0.8948336 0.31475937
0.07050359 0.030489951 0.27283314 -0.0093759 -0.34424594 0.06217891 -0.12192358 -0.18497358
0.30166498 0.25755444 -0.22015685 0.099359244 -0.19921331 0.28628704 0.3345426 -0.17701432
-0.22083986 -0.085823715 0.22906736 0.68840873 0.34943742 0.48781183 -0.090804964 0.10431138
0.23215482 0.032262664 -0.485916 0.6460826 0.4509211 0.00018429558 0.5268684 -0.27724057
0.19543943 -0.29690725 0.0375382 -0.116489135 -0.74556416 0.65005654 0.1537964 -0.26511043
-0.33556595 -0.033682063 0.24596162 -0.63400173 0.13404648 -0.2713583 0.55731714 0.7380401
1.2436777 0.17478797 1.2273011 -1.8475475 -0.46430498 1.7156292 -0.044022202 0.16894062
-0.13223478 -1.837483 -2.0570145 -2.167898 1.5110582 -1.2086365 1.1931243 0.5506495
0.22302116 -0.14626102 -0.03973505 -0.09967329 -0.19516224 -0.35006616 -0.077768266 -0.24399123
0.07768205 -0.045072764 0.09940696 -0.22269012 0.14154118 -0.1851059 0.26437512 -0.14629912
0.06337227 -0.33994147 -0.324548 -0.6603353 0.5254675 0.017394986 -0.34458503 -0.21943413
0.16180784 -0.10649517 0.30533653 -1.4585427 -0.32987157 0.32780337 0.027452346 -1.2678243
0.30298427 0.046474904 -0.122424535 0.07031739 0.078255326 0.10778797 -0.112438604 -0.21459405
-0.28911287 -0.26951587 -0.11197651 -0.032337703 -0.1880158 -0.104676776 0.32475024 -0.033693735
-0.17854977 0.14969954 1.2988161 -0.024520176 0.636918 0.88364136 0.20634171 -0.37195784
-0.052556645 0.052373823 -0.5244989 0.49067417 -0.45015985 -0.5339585 -0.06071161 -0.43775624
-1.4288701 -0.20433913 -0.26695907 0.78522336 -0.7292196 -0.8727923 -0.02548933 0.04007623
-0.28137162 0.10710856 0.5501274 -0.18908015 -0.8072447 -0.73214686 -0.25914437 0.008322758
0.098292395 -0.031098545 0.32908198 0.8051967 -0.41721264 1.2494539 0.07869786 -0.18431012
-0.058110796 -0.27141613 0.3491726 0.017074428 -0.87701154 -0.6906218 0.30649257 0.25251666
0.38769287 -0.21488073 0.05530315 0.6578504 -0.18931508 0.46833792 -0.26615068 -0.31768015
-0.051283002 0.40042916 0.31199855 0.5472175 0.45500162 0.00018640008 0.022334699 0.38639107
0.07605097 0.0018425882 -0.10921091 -0.18767704 -0.032149285 0.3174462 -0.18685484 0.116924375
0.22480503 -0.1278893 0.17701438 -0.061811298 0.013638467 -0.276499 -0.030545503 -0.33989722
-0.2618012 -0.09645054 0.005300641 -0.03960228 0.1309345 0.06532651 -0.13239151 0.19841334
0.25177583 -0.06423178 -0.3014169 0.34664145 -0.19603536 0.34135637 0.005990416 0.30525658
-0.3457182 -0.20694743 0.67097867 -0.26895276 -0.17041525 0.085195586 -0.3350675 -0.008802675
0.042116832 0.06375597 0.3715852 -0.10424173 0.5358538 0.46495703 0.12936139 -0.33152583
-0.1843162 -0.235596 -0.021094488 -0.013427458 -0.115946166 0.32040137 -0.014188826 -0.20428135
-0.27556106 0.7631604 0.4452118 0.11939979 0.09369782 0.52051157 0.67136884 0.49711868
00000000: 43b1 873f 8951 a5be 8372 b13e 555c 95bd
00000010: 7189 b33e ba2d debf ec69 8dbd 64a9 aa3e
00000020: 3700 133d 2b3e ab3c 1d65 91bf b1ce 673d
00000030: 691d fc3f 2e2e 913d d113 65bf 2428 a13e
00000040: 3064 903d 10c6 f93c c9b0 8b3e 609d 19bc
00000050: 0141 b0be 50af 7e3d 12b3 f9bd b769 3dbe
00000060: d573 9a3e 2dde 833e cc70 61be dc7c cb3d
00000070: 93fe 4bbe 3794 923e 2b49 ab3e 3e43 35be
00000080: d823 62be 58c4 afbd a290 6a3e 8e3b 303f
00000090: 76e9 b23e 79c2 f93e f4f7 b9bd 34a1 d53d
000000a0: feb9 6d3e db25 043d fbc9 f8be ab65 253f
000000b0: 21df e63e 783f 4139 d9e0 063f 7af2 8dbe
000000c0: 4621 483e 3a04 98be a8c1 193d db91 eebd
000000d0: 4bdd 3ebf 1b6a 263f ce7c 1d3e 8ebc 87be
000000e0: 4dcf abbe 34f6 09bd 5ddd 7b3e f04d 22bf
000000f0: 7b43 093e 7aef 8abe 56ac 0e3f 32f0 3c3f
00000100: d530 9f3f 9efb 323e 3418 9d3f 707c ecbf
00000110: 62b9 edbe bd99 db3f a050 34bd c5fe 2c3e
00000120: 8e68 07be a532 ebbf 20a6 03c0 d7be 0ac0
00000130: 5b6a c13f 9ab4 9abf 4cb8 983f 5ef7 0c3f
00000140: a95f 643e 73c5 15be 38c1 22bd 8321 ccbd
00000150: 9cd8 47be df3b b3be f844 9fbd d6d8 79be
00000160: c417 9f3d 389e 38bd e095 cb3d e108 64be
00000170: 2cf0 103e 678c 3dbe 2d5c 873e 70cf 15be
00000180: 52c9 813d cf0c aebe 282b a6be bc0b 29bf
00000190: 0a85 063f ee7f 8e3c 736d b0be 57b3 60be
000001a0: f4b0 253e 241a dabd 1255 9c3e 87b1 babf
000001b0: ede4 a8be d8d5 a73e bee3 e03c 1148 a2bf
000001c0: c120 9b3e 785c 3e3d b7b9 fabd 9002 903d
000001d0: 5444 a03d f0bf dc3d 3646 e6bd 8bbe 5bbe
000001e0: 9a06 94be fcfd 89be f153 e5bd 8a74 04bd
000001f0: 3787 40be c760 d6bd aa45 a63e 7102 0abd
00000200: c0d5 36be d64a 193e 9b3f a63f 89de c8bc
00000210: 0f0d 233f 5236 623f 3e4b 533e 4271 bebe
00000220: a345 57bd ef85 563d 8f45 06bf a539 fb3e
00000230: 5a7b e6be 81b1 08bf bdac 78bd 9621 e0be
00000240: 37e5 b6bf 473e 51be dcae 88be 6604 493f
00000250: 23ae 3abf 516f 5fbf 00cf d0bc f926 243d
00000260: f10f 90be bc5b db3d 26d5 0c3f 3a9e 41be
00000270: 97a7 4ebf fa6d 3bbf 92ae 84be 2d5c 083c
00000280: 864d c93d 60c2 febc 6f7d a83e 5f21 4e3f
00000290: e59c d5be 1bee 9f3f 582c a13d cbbb 3cbe
000002a0: 9605 6ebd 0ef7 8abe c0c6 b23e acdf 8b3c
000002b0: d483 60bf 97cc 30bf 98ec 9c3e dd49 813e
000002c0: ae7f c63e b209 5cbe 8e85 623d e268 283f
000002d0: d0db 41be fdc9 ef3e e744 88be f9a6 a2be
000002e0: 200e 52bd 0d05 cd3e 46be 9f3e 7216 0c3f
000002f0: f9f5 e83e 6474 4339 42f7 b63c 0dd5 c53e
00000300: 9cc0 9b3d 0083 f13a f8a9 dfbd 692e 40be
00000310: f8ae 03bd 4f88 a23e e056 3fbe 0c76 ef3d
00000320: 4a33 663e 6af5 02be 4243 353e d82d 7dbd
00000330: e073 5f3c 4791 8dbe 903a fabc 0207 aebe
00000340: cf0a 86be dc87 c5bd 00b1 ad3b 0036 22bd
00000350: b213 063e e8c9 853d a491 07be de2c 4b3e
00000360: c3e8 803e f48b 83bd 5153 9abe fd7a b13e
00000370: 7ebd 48be 43c6 ae3e 404b c43b 974a 9c3e
00000380: fa01 b1be 07ea 53be 42c5 2b3f 2db4 89be
00000390: 5681 2ebe 067b ae3d f88d abbe 1839 10bc
000003a0: b382 2c3d 7d92 823d 6a40 be3e b07c d5bd
000003b0: b72d 093f d90e ee3e 5077 043e c1bd a9be
000003c0: 63bd 3cbe 1440 71be 59ce acbc d7fe 5bbc
000003d0: 2f75 edbd a60b a43e 4078 68bc 212f 51be
000003e0: 5716 8dbe 7b5e 433f cdf2 e33e e187 f43d
000003f0: a5e4 bf3d 3f40 053f d4de 2b3f 5786 fe3e

const_fold_opt__25 f4 [12, 12]
0.7028104 -0.49907672 0.5674132 0.27034703 -0.28980878 -0.9746391 -0.6715489 0.56670094
0.7311126 -0.2961815 -1.0154314 -0.47712448 0.59918857 0.35383493 -1.6032667 0.48009953
0.2799955 -0.6120818 -0.4056372 -0.19577041 -0.16085842 1.029682 -1.7608511 0.48595613
0.21512613 0.3617458 0.80825955 0.0971554 0.3046496 -0.72831225 -0.24628446 -0.5559455
-0.25769275 -0.32740936 0.30718678 0.1143367 -0.4760089 0.6138766 0.5174836 -1.1744725
-0.65917516 0.7729289 -0.34684363 -0.62992984 0.0397301 0.6150745 0.51254284 0.35751772
0.072634704 -2.1930337 0.06703934 -0.40506023 0.11876274 -2.2402985 -1.048161 -0.059145197
-3.5366225 0.9031144 -0.9387993 -0.5756674 0.36165142 1.3663541 -0.06493887 -1.2174015
-0.13629273 -0.07222187 0.16031072 0.21758953 -0.50032663 0.16110735 -0.50657094 -0.71454567
0.9910915 -1.5872995 -0.43419626 -0.97008026 0.22166498 -0.18628067 -2.822957 0.20385669
0.33710343 -0.8224139 -0.029330308 0.2860802 -0.5756641 -0.092037804 -0.028360086 -0.3893418
0.6635258 0.3489562 -0.4240119 -0.8863059 -0.15744402 -0.9461966 -0.5033404 -0.49565783
-0.84517026 -0.79774463 -0.32778966 0.6047906 0.17623286 0.98744446 0.41356015 0.60117996
0.06390465 0.19004466 -0.16015194 -0.6076879 -0.25028083 -2.8359587 -0.8792813 -0.24564
-0.023155984 -2.6604824 1.5895561 -1.4734395 0.7911908 -1.7015914 -1.4592023 0.41260472
1.1675153 -0.92978466 -0.44769397 0.7013015 0.3285729 -1.5159298 -0.6681924 0.2031725
0.09253103 -0.013595251 1.388453 -0.06467331 -0.31264484 0.63518715 -2.544184 -0.5469089
0.16251928 -0.048558068 1.1595118 -0.16247395 0.22911973 -0.72335005 -0.816402 0.58292896
00000000: 62eb 333f fc86 ffbe fe41 113f ed6a 8a3e
00000010: d161 94be f381 79bf a1ea 2bbf 5013 113f
00000020: 322a 3b3f 1aa5 97be a8f9 81bf a949 f4be
00000030: 6c64 193f da29 b53e d837 cdbf 9bcf f53e
00000040: 925b 8f3e 65b1 1cbf aeaf cfbe 0a78 48be
00000050: 12b8 24be 9fcc 833f 9263 e1bf 3ecf f83e
00000060: 064a 5c3e bf36 b93e 19ea 4e3f 69f9 c63d
00000070: 08fb 9b3e ac72 3abf fe31 7cbe 7252 0ebf
00000080: 4ef0 83be 33a2 a7be 9647 9d3e 5c29 ea3d
00000090: 70b7 f3be 0427 1d3f ce79 043f 1d55 96bf
000000a0: b4bf 28bf abde 453f 7d95 b1be 1543 21bf
000000b0: 08bc 223d 8675 1d3f 0236 033f 900c b73e
000000c0: 81c1 943d aa5a 0cc0 ec4b 893d 0e64 cfbe
000000d0: e139 f33d 0d61 0fc0 242a 86bf 3c42 72bd
000000e0: 0658 62c0 8132 673f 2755 70bf f05e 13bf
000000f0: 602a b93e b1e4 ae3f acfe 84bd d0d3 9bbf
00000100: 5290 0bbe 0fe9 93bd 7e28 243e cacf 5e3e
00000110: 6815 00bf 53f9 243e a2ae 01bf 77ec 36bf
00000120: 2cb8 7d3f a12c cbbf f94e debe 2e57 78bf
00000130: 25fc 623e 5cc0 3ebe 54ab 34c0 cfbf 503e
00000140: d298 ac3e b889 52bf 1d46 f0bc 1b79 923e
00000150: b95e 13bf 517e bcbd 6953 e8bc cf57 c7be
00000160: d4dc 293f 63aa b23e 1618 d9be f2e4 62bf
00000170: 0139 21be f139 72bf ebda 00bf ddc6 fdbe
00000180: 145d 58bf fe38 4cbf 0cd4 a7be 8fd3 1a3f
00000190: 6376 343e 29c9 7c3f 28be d33e eee6 193f
000001a0: 71e0 823d 119b 423e dffe 23be 6f91 1bbf
000001b0: cf24 80be 5980 35c0 9418 61bf 0d89 7bbe
000001c0: 9eb1 bdbc 5845 2ac0 9376 cb3f aa99 bcbf
000001d0: 7b8b 4a3f bfcd d9bf 24c7 babf ed40 d33e
000001e0: 2471 953f 5e06 6ebf 2538 e5be 7f88 333f
000001f0: b53a a83e fd09 c2bf a80e 2bbf 740c 503e
00000200: e980 bd3d 9ebe 5ebc d4b8 b13f 7173 84bd
00000210: fc12 a0be a09b 223f e9d3 22c0 3902 0cbf
00000220: 746b 263e d3e4 46bd e26a 943f 925f 26be
00000230: 5d9e 6a3e 782d 39bf b9ff 50bf d53a 153f

const_fold_opt__24 f4 [16, 12]
-0.43840274 -1.9917336 -1.7580245 1.4974414 0.7931455 1.261522 0.8660396 0.6241396
-0.10812168 0.57332015 -2.1870427 1.4267193 -0.24639499 0.27999723 -0.4164159 0.30891687
-0.37498748 0.014703989 0.160757 -0.20656323 -0.0032948852 0.28805685 -0.22452545 0.45957124
-0.5617683 0.40274212 1.6706984 1.8161258 0.8518928 -0.42856547 -1.1454961 0.5568389
-1.4031171 0.3155247 0.56619304 -1.2974361 -0.122647144 0.593414 -0.43235016 -0.69971484
-0.25819108 -0.762037 -0.06809061 -0.2023209 1.5908177 0.62252754 -0.50417596 0.6629649
0.27754104 0.80503607 0.106544405 0.13679197 1.4480112 1.7018191 1.1892296 0.11681151
-0.57501173 -3.0554323 0.42429566 0.40374562 0.055770084 0.24219066 0.0026606843 0.764613
-0.27467307 -0.23165344 -0.1662452 0.34395254 0.657563 -0.49567586 0.8224133 -0.0995943
0.31604862 0.386962 -0.23542821 -0.20955303 0.23305845 0.45222187 0.38770002 -0.46139064
-0.04754594 -0.063239366 -0.34140265 -0.43613684 0.11833252 -0.10501991 -0.3849401 0.17612419
-0.3703131 -0.32646915 -0.39726463 -0.15221232 0.20404276 0.36499542 -0.14178914 0.2685125
-0.11217011 0.031605083 -0.45940992 -0.4447661 0.32299584 -0.03156394 -0.17278568 0.20434363
-0.19668244 0.2558956 -0.067289814 0.24088095 0.98630154 0.526637 0.6918064 -0.17170171
0.4401787 0.7379628 1.1676979 -0.6586761 0.2153841 -0.061658323 -0.13161986 0.22502318
0.81406885 0.43380883 0.5384326 -0.5152785 -0.59056973 -0.38442776 0.5410069 0.662035
0.4575728 -0.5681749 -1.483883 -0.42469227 0.35916466 1.3149905 -0.8346686 -0.6379702
0.39199877 1.4547069 -0.4677624 0.17278002 2.4767787 0.6035152 -0.5746755 -0.7247773
-0.36645332 -0.7408388 0.5535359 0.3880624 -0.11955894 0.61052644 0.00601158 -0.31349474
0.15386423 -0.5464966 0.27679518 0.5940764 0.9037479 -0.55145043 0.22784354 -0.12378612
-0.5725027 0.24066304 -1.1163672 -0.21520452 -0.054571074 0.67432046 -0.13811514 -0.118842795
-0.073014475 -0.045633633 0.4148621 0.8180069 -1.1736813 0.01932672 -0.41879943 0.18466829
0.28734925 -0.5127128 0.46509114 -0.35451463 -0.15034193 0.9251099 -0.7056749 0.07545585
0.3933096 -0.37285414 1.7728006 -0.51080495 -0.69696826 0.74681896 0.9660077 1.5147601
00000000: 5376 e0be 20f1 febf f206 e1bf 29ac bf3f
00000010: 950b 4b3f 8e79 a13f c5b4 5d3f 9dc7 1f3f
00000020: e66e ddbd 1cc5 123f 82f8 0bc0 bd9e b63f
00000030: f84e 7cbe cc5b 8f3e 7734 d5be 5a2a 9e3e
00000040: 5cfe bfbe 00e9 703c 7c9d 243e 5085 53be
00000050: 00ef 57bb 307c 933e 00ea 65be ec4c eb3e
00000060: 0cd0 0fbf 3734 ce3e 72d9 d53f cf76 e83f
00000070: a615 5a3f ef6c dbbe 9e9f 92bf ff8c 0e3f
00000080: 5799 b3bf 748c a13e 07f2 103f 6312 a6bf
00000090: 6d2e fbbd fbe9 173f 005d ddbe 8320 33bf
000000a0: 9f31 84be db14 43bf 1773 8bbd 362d 4fbe
000000b0: ea9f cb3f f75d 1f3f ad11 01bf 11b8 293f
000000c0: dc19 8e3e d816 4e3f f433 da3d 3213 0c3e
000000d0: 6e58 b93f 35d5 d93f ad38 983f df3a ef3d
000000e0: f833 13bf 348c 43c0 483d d93e bfb7 ce3e
000000f0: 2c6f 643d d400 783e e05e 2e3b adbd 433f
00000100: f3a1 8cbe 8f36 6dbe 2f3c 2abe 8c1a b03e
00000110: 0c56 283f 3ac9 fdbe ae89 523f 19f8 cbbd
00000120: 20d1 a13e e21f c63e 1814 71be 1295 56be
00000130: e0a6 6e3e a089 e73e 9e80 c63e 653b ecbe
00000140: 88bf 42bd a483 81bd 54cc aebe 544d dfbe
00000150: 5258 f23d ae14 d7bd de16 c5be e659 343e
00000160: ae99 bdbe f726 a7be 4566 cbbe 8cdd 1bbe
00000170: 96f0 503e aee0 ba3e 2c31 11be 787a 893e
00000180: 71b9 e5bd 5574 013d c737 ebbe 62b8 e3be
00000190: b65f a53e 3149 01bd bbee 30be 753f 513e
000001a0: 1f67 49be c004 833e 3ecf 89bd 7fa9 763e
000001b0: 427e 7c3f afd1 063f 391a 313f 93d2 2fbe
000001c0: 1a5f e13e 21eb 3c3f 2077 953f ff9e 28bf
000001d0: a68d 5c3e 708d 7cbd 5bc7 06be 7a6c 663e
000001e0: d166 503f 311c de3e b8d6 093f 4be9 03bf
000001f0: 942f 17bf b7d3 c4be 6e7f 0a3f 207b 293f
00000200: fb46 ea3e e973 11bf e1ef bdbf 4471 d9be
00000210: 6ee4 b73e 9c51 a83f d7ac 55bf 0452 23bf
00000220: 10b4 c83e d633 ba3f 8e7e efbe 3fed 303e
00000230: 8b83 1e40 f97f 1a3f ef1d 13bf 018b 39bf
00000240: c59f bbbe 9da7 3dbf 87b4 0d3f 1db0 c63e
00000250: 51db f4bd 764b 1c3f cafc c43b 6282 a0be
00000260: 968e 1d3e 34e7 0bbf 19b8 8d3e 6415 183f
00000270: 065c 673f db2b 0dbf d14f 693e 9483 fdbd
00000280: 898f 12bf 5f70 763e 1fe5 8ebf 935e 5cbe
00000290: eb85 5fbd 44a0 2c3f 0e6e 0dbe da63 f3bd
000002a0: 9d88 95bd 55ea 3abd ce68 d43e e668 513f
000002b0: 303b 96bf 1253 9e3c e16c d6be af19 3d3e
000002c0: 711f 933e 2541 03bf 6d20 ee3e f182 b5be
000002d0: 3cf3 19be 01d4 6c3f 1ca7 34bf 9988 9a3d
000002e0: e05f c93e bde6 bebe 21eb e23f 1dc4 02bf
000002f0: 836c 32bf 872f 3f3f 484c 773f a9e3 c13f

const_fold_opt__23 f4 [108, 32]
0.25214618 0.012356266 0.24096823 0.1098529 0.28997186 -0.08593695 0.16855727 -0.102255374
-0.15579173 -0.1703421 0.1114535 -0.23061319 -0.09803048 -0.07981107 -0.21747327 0.097665936
-0.18731077 0.35679117 0.08311231 0.092396356 0.04989663 0.04036539 0.41567805 0.15273117
0.54605377 0.15570858 -0.11091451 0.055932835 -0.15714833 0.11123274 -0.25439674 -0.058664452
0.07723726 0.044958845 0.099504106 0.02718696 0.12218061 0.0024900744 -0.035300013 -0.068594605
-0.01807667 0.25648773 0.1535308 0.21231747 -0.16293158 0.048469946 0.11483303 0.13606411
0.20765793 -0.1089487 -0.19059046 0.027780712 -0.40190992 -0.09638396 0.3160209 0.14912774
0.19772616 0.10355201 -0.02499363 0.069935486 -0.07200578 -0.21408999 0.04340702 -0.0018846483
0.1993557 -0.06991023 -0.0418952 -0.07493614 0.2556933 0.032232758 0.5071878 -0.06368099
0.3974902 0.49625888 0.033660926 -0.010339598 -0.0056809783 0.020820454 0.23538929 -0.65136266
0.64979035 -0.043721966 0.27002144 0.04988313 -0.17772587 -0.074879 -0.006127286 0.12250456
-0.26666507 0.033049412 0.056367736 0.026516031 -0.05642966 -0.083553046 -0.18092513 -0.118836634
0.13732614 -0.19679105 0.15812713 -0.12603232 -0.18963204 0.18508473 -0.12968203 -0.06849265
-0.13444321 0.12131925 -0.14470385 0.165252 0.090678796 -0.10078506 0.15191598 0.42260024
0.31497467 -0.20695372 0.037580848 -0.033739567 0.029809164 0.015158199 -0.4872693 0.065473326
0.17535366 0.20179395 0.083221845 -0.045089062 0.27670088 0.12722503 0.19122784 -0.4449914
0.28047326 0.07530992 -0.095906064 0.05254363 0.3629104 -0.0058701173 0.17578253 -0.06227913
0.111567564 0.21230938 0.08575245 -0.10580089 -0.009791702 -0.059300125 0.14006476 -0.25157902
-0.2513723 0.1724458 -0.16129066 0.1729123 0.026371488 0.0020569162 -0.17350495 -0.09544991
0.07163957 0.1435533 0.16721474 0.1185365 0.1199646 0.39200088 -0.08222586 0.1471466
-0.30261353 0.039479643 -0.031129899 -0.15499939 0.17880014 -0.13225119 -0.04084314 0.0866765
0.34877765 0.18149893 0.101898335 -0.046829488 -0.2029771 -0.19403544 -0.0051397905 0.3116361
-0.9267073 -0.08578197 0.0742457 0.10386149 0.15939167 -0.23378943 -0.02002273 0.06561262
-0.26469404 -0.077940494 0.15572833 0.15795964 0.013279283 -0.16270564 0.08429396 0.061455734
0.33734384 -0.05580415 0.0034993433 0.14284946 -0.25734317 -0.18895632 0.049724203 0.16616407
0.09133891 0.26351574 0.04689851 -0.09869911 0.099573 -0.025690839 0.278843 0.017031727
-0.35749575 0.31677437 -0.14437716 0.11866661 0.15865548 -0.0501164 0.013244338 0.25830594
0.102903806 0.49286625 -0.19479902 0.054313358 -0.29885772 0.031673655 0.48399293 0.0067470316
0.08715219 -0.078463554 0.09340029 0.47676182 -0.5793707 -0.12248343 0.26043114 0.05485312
0.04408845 0.42871463 0.29579723 -0.07132012 0.07452296 -0.08243342 0.02397906 0.015236526
-0.184584 0.10754087 -0.17678177 -0.14840317 0.1337138 -0.3496815 -0.1972284 0.19945714
-0.0035383704 0.19385517 0.14439464 0.2285144 -0.12979469 0.09738789 0.18889582 0.06291951
00000000: 4e19 813e f071 4a3c 60c0 763e 8ffa e03d
00000010: 3177 943e b6ff afbd 479a 2c3e 446b d1bd
00000020: de87 1fbe 296e 2ebe bc41 e43d dd25 6cbe
00000030: 34c4 c8bd fc73 a3bd 50b1 5ebe 1405 c83d
00000040: 65ce 3fbe 55ad b63e c936 aa3d 4d3a bd3d
00000050: 6960 4c3d 2e56 253d c1d3 d43e 8f65 1c3e
00000060: 2eca 0b3f 1272 1f3e 2627 e3bd d419 653d
00000070: 7eeb 20be fecd e33d 4a40 82be 234a 70bd
00000080: 922e 9e3d c426 383d cfc8 cb3d 30b7 de3c
00000090: d439 fa3d 8430 233b bf96 10bd 547b 8cbd
000000a0: 8615 94bc 5c52 833e 2e37 1d3e c069 593e
000000b0: 89d7 26be 6c88 463d 942d eb3d 6454 0b3e
000000c0: 48a4 543e 7f20 dfbd 252a 43be 6094 e33c
000000d0: 23c7 cdbe f464 c5bd 7ecd a13e f1b4 183e
000000e0: ba78 4a3e 1413 d43d 71bf ccbc 563a 8f3d
000000f0: c477 93bd 683a 5bbe 8fcb 313d 4e06 f7ba
00000100: e723 4c3e 182d 8fbd 4d9a 2bbd 1e78 99bd
00000110: 3bea 823e 7f06 043d 0fd7 013f 2e6b 82bd
00000120: d683 cb3e a515 fe3e 0ae0 093d 6b67 29bc
00000130: 8027 babb a88f aa3c e409 713e b4bf 26bf
00000140: a958 263f ce15 33bd 4040 8a3e 4152 4c3d
00000150: c5fd 35be 295a 99bd 66c7 c8bb ace3 fa3d
00000160: 5388 88be d25e 073d dbe1 663d 2638 d93c
00000170: ca22 67bd dc1d abbd 7044 39be 9f60 f3bd
00000180: 399f 0c3e 9883 49be 14ec 213e 9e0e 01be
00000190: e72e 42be da86 3d3e 5ecb 04be e045 8cbd
000001a0: 7bab 09be 3a76 f83d 3f2d 14be d237 293e
000001b0: ceb5 b93d 6668 cebd dd8f 1b3e 0f5f d83e
000001c0: 5c44 a13e adeb 53be 60ee 193d 8032 0abd
000001d0: 5932 f43c 185a 783c 5d7b f9be e116 863d
000001e0: e98f 333e 13a3 4e3e 3770 aa3d 4faf 38bd
000001f0: bdab 8d3e 4747 023e 3bd1 433e ead5 e3be
00000200: 319a 8f3e 163c 9a3d 666a c4bd fd37 573d
00000210: 64cf b93e 1d5a c0bb 5600 343e 6718 7fbd
00000220: 897d e43d a167 593e fb9e af3d 23ae d8bd
00000230: 606d 20bc b0e4 72bd 236d 0f3e f7ce 80be
00000240: dfb3 80be a295 303e 6129 25be ec0f 313e
00000250: 0509 d83c 54cd 063b 48ab 31be 3e7b c3bd
00000260: c4b7 923d a3ff 123e 573a 2b3e 44c3 f23d
00000270: 00b0 f53d 57b4 c83e 0866 a8bd 99ad 163e
00000280: 29f0 9abe 68b5 213d 2104 ffbc 29b8 1ebe
00000290: 6217 373e db6c 07be 234b 27bd 7383 b13d
000002a0: fc92 b23e dbda 393e 13b0 d03d 47d0 3fbd
000002b0: 3bd9 4fbe 3ab1 46be b06b a8bb c48e 9f3e
000002c0: b13c 6dbf 75ae afbd 210e 983d 55b5 d43d
000002d0: 9237 233e 7f66 6fbe b506 a4bc e95f 863d
000002e0: fa85 87be 449f 9fbd 3f77 1f3e 2cc0 213e
000002f0: 5a91 593c 4f9c 26be 50a2 ac3d 02b9 7b3d
00000300: 55b8 ac3e e492 64bd 3d55 653b 2147 123e
00000310: 7cc2 83be c47d 41be 9bab 4b3d ea26 2a3e
00000320: e50f bb3d 89eb 863e a718 403d c222 cabd
00000330: eeec cb3d 9875 d2bc 82c4 8e3e 1f86 8b3c
00000340: af09 b7be 4030 a23e 9bd7 13be 7b07 f33d
00000350: 9576 223e db46 4dbd c8fe 583c ad40 843e
00000360: 3bbf d23d f758 fc3e 6579 47be af77 5e3d
00000370: e103 99be 3cbc 013d eccd f73e 3416 dd3b
00000380: d97c b23d 80b1 a0bd a748 bf3d 201a f43e
00000390: a351 14bf 98d8 fabd 3b57 853e aaad 603d
000003a0: 1796 343d 7c80 db3e bc72 973e 4810 92bd
000003b0: 7e9f 983d dad2 a8bd bc6f c43c 9fa2 793c
000003c0: 9703 3dbe 633e dc3d 4806 35be 00f7 17be
000003d0: 45ec 083e 7409 b3be 3ef6 49be 7e3e 4c3e
000003e0: 01e4 67bb f881 463e 30dc 133e aeff 693e
000003f0: e6e8 04be 4d73 c73d e86d 413e f2db 803d
